…
put_shape=[3,128,128]\n","summary(autoencoder,(3,128,128))\n","#如果你不想重頭跑，就請把下一行的註釋取消\n","#autoencoder=T.load('Models/pokemon_ae.pth')"],"execution_count":0,"outputs":[{"output_type":"stream","text":["--------------------------------------------------------------------------------------------------------------------------------\n","              Layer (type)                   Output Shape            Weight           Bias    Param #     FLOPS #   \n","==============================================================================\n","conv2d_17                                [-1, 32, 128, 128]    [32, 3, 5, 5]                  2400      78626816.0  \n","batch_norm_1                             [-1, 32, 128, 128]    [32]                 [32]      64        1556480.0   \n","conv2d__block_1                          [-1, 32, 128, 128]                                   0         0.0         \n","batch_norm_2                             [-1, 64, 64, 64]      [64]                 [64]      128       782336.0    \n","conv2d__block_2                          [-1, 64, 64, 64]                                     0         0.0         \n","batch_norm_3                             [-1, 64, 32, 32]      [64]                 [64]      128       195584.0    \n","conv2d__block_3                          [-1, 64, 32, 32]                                     0         0.0         \n","batch_norm_4                             [-1, 128, 16, 16]     [128]                [128]     256       98048.0     \n","conv2d__block_4                          [-1, 128, 16, 16]                                    0         0.0         \n","batch_norm_5                             [-1, 128, 8, 8]       [128]                [128]     256       24512.0     \n","conv2d__block_5                          [-1, 128, 8, 8]                                      0         0.0         \n","batch_norm_6                             [-1, 256, 4, 4]       [256]                [256]     512       12272.0     \n","conv2d__block_6                          [-1, 256, 4, 4]                                      0         0.0         \n","batch_norm_7                             [-1, 256, 4, 4]       [256]                [256]     512       12272.0     \n","conv2d__block_7                          [-1, 256, 4, 4]                                      0         0.0         \n","reshape_1                                [-1, 4096, 1, 1]                                     0         0.0         \n","conv2d_14                                [-1, 128, 1, 1]       [128, 4096, 1, 1]              524288    1048575.0   \n","sequential_4                             [-1, 128, 1, 1]                                      0         0.0         \n","conv2d_15                                [-1, 2048, 1, 1]      [2048, 128, 1, 1]              262144    524287.0    \n","reshape_2                                [-1, 128, 4, 4]                                      0         0.0         \n","batch_norm_8                             [-1, 128, 4, 4]       [128]                [128]     256       6128.0      \n","conv2d__block_8                          [-1, 128, 4, 4]                                      0         0.0         \n","batch_norm_9                             [-1, 128, 8, 8]       [128]                [128]     256       24512.0     \n","trans_conv2d__block_1                    [-1, 128, 8, 8]                                      0         0.0         \n","batch_norm_10                            [-1, 64, 16, 16]      [64]                 [64]      128       48896.0     \n","trans_conv2d__block_2                    [-1, 64, 16, 16]                                     0         0.0         \n","batch_norm_11                            [-1, 64, 32, 32]      [64]                 [64]      128       195584.0    \n","trans_conv2d__block_3                    [-1, 64, 32, 32]                                     0         0.0         \n","batch_norm_12                            [-1, 64, 64, 64]      [64]                 [64]      128       782336.0    \n","trans_conv2d__block_4                    [-1, 64, 64, 64]                                     0         0.0         \n","batch_norm_13                            [-1, 64, 128, 128]    [64]                 [64]      128       3129344.0   \n","trans_conv2d__block_5                    [-1, 64, 128, 128]                                   0         0.0         \n","conv2d_16                                [-1, 3, 128, 128]     [3, 64, 1, 1]                  192       6275072.0   \n","sequential_5                             [-1, 3, 128, 128]                                    0         0.0         \n","================================================================\n","Total params: 791,904\n","Trainable params: 791,904\n","Non-trainable params: 0\n","Total MACC: 45,557,760.0\n","Total FLOPs: 0.09334 GFLOPs\n","----------------------------------------------------------------\n","Input size (MB): 0.19\n","Forward/backward pass size (MB): 39.97\n","Params size (MB): 3.02
…
